## 1. Model_2.py logs:
```
(.venv) PS C:\Raghu\MyLearnings\ERA_V4\S6-21092025\code\mnist_digits_experiments> python .\Experiment2.py
CUDA Available? True
cuda
----------------------------------------------------------------
        Layer (type)               Output Shape         Param #
================================================================
            Conv2d-1            [-1, 8, 28, 28]              80
       BatchNorm2d-2            [-1, 8, 28, 28]              16
            Conv2d-3           [-1, 16, 28, 28]           1,168
       BatchNorm2d-4           [-1, 16, 28, 28]              32
         MaxPool2d-5           [-1, 16, 14, 14]               0
            Conv2d-6           [-1, 16, 14, 14]           2,320
       BatchNorm2d-7           [-1, 16, 14, 14]              32
         MaxPool2d-8             [-1, 16, 7, 7]               0
            Conv2d-9             [-1, 32, 7, 7]           4,640
      BatchNorm2d-10             [-1, 32, 7, 7]              64
           Conv2d-11             [-1, 10, 7, 7]             330
AdaptiveAvgPool2d-12             [-1, 10, 1, 1]               0
================================================================
Total params: 8,682
Trainable params: 8,682
Non-trainable params: 0
----------------------------------------------------------------
Input size (MB): 0.00
Forward/backward pass size (MB): 0.39
Params size (MB): 0.03
Estimated Total Size (MB): 0.43
----------------------------------------------------------------
EPOCH: 1
28092025-1423
…
