## 1. Model_1.py logs:

(.venv) PS C:\Raghu\MyLearnings\ERA_V4\S6-21092025\code\mnist_digits_experiments> python .\Experiment1.py
CUDA Available? True
cuda
----------------------------------------------------------------
        Layer (type)               Output Shape         Param #
================================================================
            Conv2d-1            [-1, 8, 28, 28]              80
       BatchNorm2d-2            [-1, 8, 28, 28]              16
         MaxPool2d-3            [-1, 8, 14, 14]               0
            Conv2d-4           [-1, 16, 14, 14]           1,168
       BatchNorm2d-5           [-1, 16, 14, 14]              32
         MaxPool2d-6             [-1, 16, 7, 7]               0
            Conv2d-7              [-1, 8, 7, 7]             136
            Conv2d-8             [-1, 32, 7, 7]           2,336
            Conv2d-9             [-1, 28, 7, 7]             924
           Linear-10                   [-1, 10]          13,730
================================================================
Total params: 18,422
Trainable params: 18,422
Non-trainable params: 0
----------------------------------------------------------------
Input size (MB): 0.00
Forward/backward pass size (MB): 0.19
Params size (MB): 0.07
Estimated Total Size (MB): 0.26
----------------------------------------------------------------
EPOCH: 1
28092025-1439
…
